
wandb: WARNING The save_model argument by default saves the model in the HDF5 format that cannot save custom objects like subclassed models and custom layers. This behavior will be deprecated in a future release in favor of the SavedModel format. Meanwhile, the HDF5 model is saved as W&B files and the SavedModel as W&B Artifacts.
Model: "sequential"
_________________________________________________________________
 Layer (type)                Output Shape              Param #
=================================================================
 conv2d (Conv2D)             (None, 26, 26, 32)        320
 max_pooling2d (MaxPooling2D  (None, 13, 13, 32)       0
 )
 conv2d_1 (Conv2D)           (None, 11, 11, 64)        18496
 max_pooling2d_1 (MaxPooling  (None, 5, 5, 64)         0
 2D)
 conv2d_2 (Conv2D)           (None, 3, 3, 64)          36928
 flatten (Flatten)           (None, 576)               0
 dense (Dense)               (None, 64)                36928
 dense_1 (Dense)             (None, 10)                650
=================================================================
Total params: 93,322
Trainable params: 93,322
Non-trainable params: 0
_________________________________________________________________
None
Epoch 1/100









469/469 [==============================] - 21s 44ms/step - loss: 0.2419 - accuracy: 0.9251 - val_loss: 0.0872 - val_accuracy: 0.9720 - _timestamp: 1654300890.0000 - _runtime: 27.0000
…
